…
[0]<stdout>: Layer (type)                Output Shape              Param #   
[0]<stdout>:=================================================================
[0]<stdout>: conv3d (Conv3D)             (None, 128, 128, 128, 3   3488      
[0]<stdout>:                             2)                                  
[0]<stdout>:                                                                 
[0]<stdout>: leaky_re_lu (LeakyReLU)     (None, 128, 128, 128, 3   0         
[0]<stdout>:                             2)                                  
[0]<stdout>:                                                                 
[0]<stdout>: max_pooling3d (MaxPooling3  (None, 64, 64, 64, 32)    0         
[0]<stdout>: D)                                                              
[0]<stdout>:                                                                 
[0]<stdout>: conv3d_1 (Conv3D)           (None, 64, 64, 64, 64)    55360     
[0]<stdout>:                                                                 
[0]<stdout>: leaky_re_lu_1 (LeakyReLU)   (None, 64, 64, 64, 64)    0         
[0]<stdout>:                                                                 
[0]<stdout>: max_pooling3d_1 (MaxPoolin  (None, 32, 32, 32, 64)    0         
[0]<stdout>: g3D)                                                            
[0]<stdout>:                                                                 
[0]<stdout>: conv3d_2 (Conv3D)           (None, 32, 32, 32, 128)   221312    
[0]<stdout>:                                                                 
[0]<stdout>: leaky_re_lu_2 (LeakyReLU)   (None, 32, 32, 32, 128)   0         
[0]<stdout>:                                                                 
[0]<stdout>: max_pooling3d_2 (MaxPoolin  (None, 16, 16, 16, 128)   0         
[0]<stdout>: g3D)                                                            
[0]<stdout>:                                                                 
[0]<stdout>: conv3d_3 (Conv3D)           (None, 16, 16, 16, 256)   884992    
[0]<stdout>:                                                                 
[0]<stdout>: leaky_re_lu_3 (LeakyReLU)   (None, 16, 16, 16, 256)   0         
[0]<stdout>:                                                                 
[0]<stdout>: max_pooling3d_3 (MaxPoolin  (None, 8, 8, 8, 256)      0         
[0]<stdout>: g3D)                                                            
[0]<stdout>:                                                                 
[0]<stdout>: conv3d_4 (Conv3D)           (None, 8, 8, 8, 512)      3539456   
[0]<stdout>:                                                                 
[0]<stdout>: leaky_re_lu_4 (LeakyReLU)   (None, 8, 8, 8, 512)      0         
[0]<stdout>:                                                                 
[0]<stdout>: max_pooling3d_4 (MaxPoolin  (None, 4, 4, 4, 512)      0         
[0]<stdout>: g3D)                                                            
[0]<stdout>:                                                                 
[0]<stdout>: flatten (Flatten)           (None, 32768)             0         
[0]<stdout>:                                                                 
[0]<stdout>: dense (Dense)               (None, 128)               4194432   
[0]<stdout>:                                                                 
[0]<stdout>: leaky_re_lu_5 (LeakyReLU)   (None, 128)               0         
[0]<stdout>:                                                                 
[0]<stdout>: dropout (Dropout)           (None, 128)               0         
[0]<stdout>:                                                                 
[0]<stdout>: dense_1 (Dense)             (None, 64)                8256      
[0]<stdout>:                                                                 
[0]<stdout>: leaky_re_lu_6 (LeakyReLU)   (None, 64)                0         
[0]<stdout>:                                                                 
[0]<stdout>: dropout_1 (Dropout)         (None, 64)                0         
[0]<stdout>:                                                                 
[0]<stdout>: dense_2 (Dense)             (None, 4)                 260       
[0]<stdout>:                                                                 
[0]<stdout>: lambda (Lambda)             (None, 4)                 0         
[0]<stdout>:                                                                 
[0]<stdout>:=================================================================
[0]<stdout>:Total params: 8907556 (33.98 MB)
[0]<stdout>:Trainable params: 8907556 (33.98 MB)
[0]<stdout>:Non-trainable params: 0 (0.00 Byte)
[0]<stdout>:_________________________________________________________________
[0]<stderr>:2024-11-01 13:41:14,356 INFO Writing config via pickle to /lustre/orion/proj-shared/stf008/hvac/sylee/cosmoflow/results/config.pkl
…
